…
  output: {'raw': {'dtype': 'string', 'shape': ()}, 'orth': [256, 1], 'classes': [184, 1], 'data': [1, 2]}
  OggZipDataset, sequences: 0, frames: unknown
Reading sequence list for MetaDataset 'dev' from sub-dataset 'dev_data'
  input: 0
  output: {'classes': [184, 1], 'data': [1, 2]}
  MetaDataset, sequences: 0, frames: unknown
Learning-rate-control: file learning_rates does not exist yet
Using fresh model
Model: FFNNTransducerQATEncoderModel(
  (feature_extraction): LogMelFeatureExtractionV1()
  (conformer): ConformerEncoderQuant(
    (frontend): GenericFrontendV1(
      (frontend_layers): ModuleList(
        (0): Conv2d(1, 32, kernel_size=(3, 3), stride=(1, 1), padding=(1, 1))
        (1): Conv2d(32, 64, kernel_size=(3, 3), stride=(1, 1), padding=(1, 1))
        (2): ReLU()
        (3): MaxPool2d(kernel_size=(2, 1), stride=(2, 1), padding=(0, 0), dilation=1, ceil_mode=False)
        (4): Conv2d(64, 64, kernel_size=(3, 3), stride=(1, 1), padding=(1, 1))
        (5): Conv2d(64, 32, kernel_size=(3, 3), stride=(1, 1), padding=(1, 1))
        (6): ReLU()
        (7): MaxPool2d(kernel_size=(2, 1), stride=(2, 1), padding=(0, 0), dilation=1, ceil_mode=False)
      )
      (linear): Linear(in_features=2560, out_features=512, bias=True)
    )
    (module_list): ModuleList(
      (0-11): 12 x ConformerBlockQuant(
        (final_layer_norm): LayerNorm((512,), eps=1e-05, elementwise_affine=True)
        (module_list): ModuleList(
          (0): ConformerPositionwiseFeedForwardQuant(
            (layer_norm): LayerNorm((512,), eps=1e-05, elementwise_affine=True)
            (linear_ff): LinearQuant(
              (weight_quantizer): WeightQuantizer(
                (observer): MinMaxObserver(min_val=inf, max_val=-inf)
              )
            )
            (activation): SiLU()
            (linear_out): LinearQuant(
              (weight_quantizer): WeightQuantizer(
                (observer): MinMaxObserver(min_val=inf, max_val=-inf)
…
              (observer): MinMaxObserver(min_val=inf, max_val=-inf)
            )
            (lin_1_out_quant): ActivationQuantizer(
              (observer): MinMaxObserver(min_val=inf, max_val=-inf)
            )
            (lin_2_in_quant): ActivationQuantizer(
              (observer): MinMaxObserver(min_val=inf, max_val=-inf)
            )
            (lin_2_out_quant): ActivationQuantizer(
              (observer): MinMaxObserver(min_val=inf, max_val=-inf)
            )
          )
        )
      )
    )
  )
  (encoder_output): Sequential(
    (0): Dropout(p=0.1, inplace=False)
    (1): Linear(in_features=512, out_features=185, bias=True)
  )
  (token_embedding): Embedding(185, 256, padding_idx=184)
  (prediction_net): Sequential(
    (0): Dropout(p=0.1, inplace=False)
    (1): Linear(in_features=256, out_features=640, bias=True)
    (2): Tanh()
    (3): Dropout(p=0.1, inplace=False)
    (4): Linear(in_features=640, out_features=640, bias=True)
    (5): Tanh()
  )
  (prediction_output): Sequential(
    (0): Dropout(p=0.1, inplace=False)
    (1): Linear(in_features=640, out_features=185, bias=True)
  )
  (joint_net): Sequential(
    (0): Dropout(p=0.1, inplace=False)
    (1): Linear(in_features=1152, out_features=1024, bias=True)
    (2): Tanh()
    (3): Dropout(p=0.1, inplace=False)
    (4): Linear(in_features=1024, out_features=185, bias=True)
  )
)
Total number of parameters: 79488139
Optimizer: RAdam (
Parameter Group 0
    betas: (0.9, 0.999)
    capturable: False
    decoupled_weight_decay: True
    differentiable: False
    eps: 1e-12
    foreach: None
    lr: 1.0
    maximize: False
    weight_decay: 0.01
)
Starting training at epoch 1.
start epoch 1 with learning rate 7e-06 ...
train epoch 1, step:0, step time: 4.627, GMEM: 4.8/5.8/23.6, total (grad) loss: 24.511711, enc_ctc: 15.30440, mono_rnnt: 16.85951
…
